HQNN_tf_attempt2
_________________________________________________________________
 Layer (type)                Output Shape              Param #
=================================================================
 input_1 (InputLayer)        [(None, 28, 28, 1)]       0

 conv2d (Conv2D)             (None, 28, 28, 16)        160

 max_pooling2d (MaxPooling2  (None, 14, 14, 16)        0
 D)

 conv2d_1 (Conv2D)           (None, 14, 14, 32)        4640

 max_pooling2d_1 (MaxPoolin  (None, 7, 7, 32)          0
 g2D)

 flatten (Flatten)           (None, 1568)              0

 dense (Dense)               (None, 4)                 6276

 keras_layer (KerasLayer)    (None, 4)                 36

 dense_1 (Dense)             (None, 10)                50

=================================================================
Total params: 11162 (43.60 KB)
Trainable params: 11162 (43.60 KB)
Non-trainable params: 0 (0.00 Byte)
_________________________________________________________________
Epoch 1/20
1688/1688 [==============================] - 305s 181ms/step - loss: 1.4680 - accuracy: 0.5487 - val_loss: 0.8413 - val_accuracy: 0.7295
Epoch 2/20
1688/1688 [==============================] - 292s 173ms/step - loss: 0.6596 - accuracy: 0.7818 - val_loss: 0.4850 - val_accuracy: 0.8567
…
